models/MLP.onnx (onnx, 44115 bytes, 6 tensors)

fc1.weight f4 [64, 135]
00000000: 60ad 963e 093f a4be 38ee a9be 3d25 9a3e
00000010: 8c28 7bbe 5d48 a0be eb41 52bd 0ab7 82be
00000020: 0382 853e cde2 06be c676 4fbf 8aac ea3e
00000030: fa8d d3bd 63d1 a7be 6624 ed3c 6527 b5be
00000040: 8bc7 96be 433e 18bf 5a29 cebe c3a9 02bf
00000050: e168 073c fcc3 c03e 9542 ab3e 6916 4f3d
00000060: f38f 1c3e 85e4 6ebe c86a 98be 7ba1 adbe
00000070: 304d 8ebe 85d7 41bc e81a cabd fa90 e2bd
00000080: b486 0cbc 4fc5 c7bd 9da1 76bd 290c 1fbf
00000090: e39d 703e b865 8d3d a826 403f 173d 4abf
000000a0: 291d 7a3f 4e63 c7be 5ea7 7c3f ac29 0cc0
000000b0: 5ab6 273f 7046 42c0 a0eb 6a3f 0ddc a7bf
000000c0: f63e b13e 6fc5 f9be 785c 4abf 17c7 aebf
000000d0: 38b0 55bf 7b22 29be b1f8 303f b0af c3bf
000000e0: eeb1 a13f 3ad8 393e 3067 b03e fcdb 073e
000000f0: 11a4 07bf 4052 f1be f241 a0bf a6be 8ebe
00000100: 8006 b2be 9966 d3be 16f2 a03d 88f1 95be
00000110: 1dcf b83f ee07 66be 715b e2bf 2380 293f
00000120: 6b78 d9be dc52 463f 351e 3abf a88c d53e
00000130: 6d83 a7bf 4b82 4f3f 8c2b 0bbf a302 92bf
00000140: a927 683e 651a e5be 6449 cabe ca83 52c0
00000150: 61ea 1f3e 517e 723f bb09 02bf 3c2d 2ebf
00000160: d22a 883f 6d7b 003f 6f43 893f 76d5 b5be
00000170: aad2 0abe 2188 3dbf 6cc6 29bf 3b09 44bd
00000180: 138e b83e 03fe afbf 7782 05be 0fa1 ddbf
00000190: fa17 fb3f c11c a43f 7bac 5b3f b329 d33e
000001a0: 787d 9f3f 3fe5 363f b386 00c0 a839 67bf
000001b0: f309 86bf 4e55 3fbf 1b83 05c0 9a5d b2be
000001c0: b6cc 7cbe a18c 3a3e cbbd cebe fba6 903e
000001d0: e248 a73d 3262 98bf ce1b 91bf 9852 093f
000001e0: a5d0 d8bf 1e10 4f3e 8bfd 3a3f 13ea 3e3e
000001f0: 12ef 16bf 01e4 113f 4bee 36be aae9 4abf
00000200: 5919 86be d661 1fbf 7b1c dbbe 8f48 7e3f
00000210: 2813 5fbf 88b1 903e ab05 27be 56c3 36bf
00000220: 7034 c43e 00a8 4a3f 8eb4 d0be 7f97 4a3e
00000230: 3ac8 20bf 52dd d93e 4aed 5c3d d276 b8be
00000240: 1b7d bdbe f5d5 b93e a8e2 abbe ec7e b5b9
00000250: 0c71 91bd 9770 363e 0c5b cb3e de8b 7a3e
00000260: adbe bd3b af32 983e e0e3 0dbe 0f12 993e
00000270: 3c58 8a3e 53bc 223d 9780 bdbe 7fbe 16be
00000280: 259f c7bc 0f90 983d b9f0 46bf 39fb 99bd
00000290: 658f 8c3d 0792 a3be f389 80be c179 28bf
000002a0: e313 dabe ab98 aa3d 0952 6ebe 5110 1ebd
000002b0: 05ed 693d 02d2 2abd 5320 663f ce02 4a3f
000002c0: 126b a9be d83e 64be 8ffe 0a3e 411b 05be
000002d0: 945d a4bf 84f9 593f d60b 13c0 838a 92bc
000002e0: 06fd acbe 3844 8f3e 769e 00bf df0d cfbe
000002f0: 8d4f a9be 3fb9 23bf 3512 0b3f 7c84 bcbe
00000300: 4789 4fbf 1106 5fbf cdfc b7bf b663 373f
00000310: 1ed3 c1bc 204f c3bf a292 e83e d6e8 aabf
00000320: 1dde 67be e8cc 123f 172a 8c3f c702 153f
00000330: ae74 f13d cff2 7a3f af3b babf 0a11 f4bf
00000340: 0b77 4a3f 4223 bcbd db5f ccbf 137c 2d3f
00000350: e837 8dbe 2dca a43e 4879 f73e 0474 163f
00000360: b110 babe 151e 88bf 6339 27bf a152 27bf
00000370: 7293 39bf fab4 0e3f 8af5 31bf 4287 e0be
00000380: 5da9 c03d 7097 b1bf 6d0b 99bc 4be5 0f3f
00000390: 9e3c 02c0 0b09 3f3f d2d1 4c3c 1655 0d3f
000003a0: 1f75 9c3e fc7a 573f 6665 2dbf 123f 7e3f
000003b0: 4a8c a4be 89ed 813d 124d 15c0 9c3f 9abf
000003c0: 9522 4abf 26c4 8b3f 0c17 b7bf 0f3f 9e3f
000003d0: ce54 d6bf 5e59 adbe 4a26 263f 2bbd 74be
000003e0: 7c54 4c3f 5ac5 433d e6f2 bdbf 9b31 453e
000003f0: 0f95 b7bf e5b6 843f b544 d4bf 2c5e 45be
0.2942915 -0.32079342 -0.3318956 0.30106536 -0.24527186 -0.3130521 -0.051332396 -0.25530273
0.26075754 -0.13172455 -0.8104061 0.45834762 -0.10329814 -0.32776937 0.02894802 -0.35381618
-0.29449114 -0.59470004 -0.40265924 -0.51040286 0.008264751 0.37649524 0.33449236 0.05055848
0.15289287 -0.23329361 -0.29768968 -0.33912262 -0.27793264 -0.011831169 -0.09868413 -0.11062808
-0.008577038 -0.097544305 -0.06021272 -0.6212793 0.23497729 0.06904167 0.75058985 -0.78999466
0.97700745 -0.3894295 0.9869288 -2.1900434 0.6551262 -3.0355492 0.91765785 -1.3114029
0.34618348 -0.48783442 -0.79047346 -1.3654507 -0.83472013 -0.1651706 0.6912947 -1.528799
1.2632425 0.1814889 0.34453726 0.13267511 -0.5298472 -0.47133064 -1.2520125 -0.27879828
-0.34770584 -0.41289213 0.07858674 -0.29285836 1.4438206 -0.22463962 -1.7684156 0.66211146
-0.42474684 0.77470183 -0.7270234 0.41708875 -1.3086983 0.81058186 -0.5436332 -1.1407055
0.22671379 -0.447467 -0.39509118 -3.2892938 0.15616752 0.94723994 -0.507961 -0.6803777
1.0638068 0.5018833 1.0723704 -0.3551442 -0.13556924 -0.7403584 -0.6631839 -0.047860365
0.36045894 -1.3749393 -0.1303805 -1.7314776 1.9616692 1.2821275 0.8581006 0.4124275
1.2460165 0.7144355 -2.0082214 -0.9032235 -1.0471786 -0.7473954 -2.086127 -0.34837037
-0.24687466 0.18217708 -0.40379176 0.28252396 0.08168198 -1.1904967 -1.133661 0.53641653
-1.6938673 0.20220992 0.73043126 0.1864398 -0.5895854 0.5698853 -0.17864339 -0.79262793
-0.26191214 -0.6225866 -0.42795166 0.99329466 -0.87138605 0.28260446 -0.16310756 -0.7139181
0.38321257 0.791626 -0.40762752 0.19784354 -0.6280552 0.42551666 0.053937234 -0.36028153
-0.3700951 0.3629605 -0.33571362 -0.00034617574 -0.0710164 0.17816387 0.397179 0.24467418
0.0057905526 0.2972617 -0.13856459 0.2989659 0.27020442 0.03973038 -0.3701217 -0.14721106
-0.024367878 0.07449352 -0.77711064 -0.0751862 0.06863288 -0.31947348 -0.25105247 -0.6581078
-0.42593297 0.083299 -0.23273481 -0.03858978 0.057110805 -0.041704185 0.8989307 0.7891053
-0.330895 -0.22289598 0.13573669 -0.12998678 -1.2841058 0.85146356 -2.2975974 -0.017888313
-0.33786792 0.27981734 -0.5024179 -0.4044027 -0.33068505 -0.6395454 0.54324657 -0.36819828
-0.81068844 -0.8711863 -1.4374024 0.7163652 -0.023660239 -1.5258522 0.45424372 -1.3352306
-0.22643323 0.5734391 1.0950345 0.5820736 0.11789833 0.98026747 -1.4549464 -1.90677
0.79087895 -0.091864124 -1.5966753 0.6776745 -0.27581716 0.32185498 0.48334718 0.58770776
-0.3634086 -1.063418 -0.6532194 -0.65360457 -0.7249061 0.557449 -0.6951529 -0.43853194
0.094073035 -1.387434 -0.018682206 0.5620925 -2.0349498 0.74623173 0.012501197 0.55207956
0.30558106 0.84172034 -0.67732847 0.9931499 -0.32138282 0.06344134 -2.332829 -1.2050662
-0.7895902 1.0919235 -1.4303908 1.2362994 -1.674463 -0.33857244 0.64902174 -0.23900287
0.7981641 0.04779563 -1.4839752 0.19257204 -1.4342364 1.0368315 -1.6583468 -0.19274205

fc1.bias f4 [64]
00000000: b5bc 09bf 5873 4cbe 55cf 44be ea94 9fbe
00000010: e3df 1abe 754e 863d 9119 73be ad91 a9be
00000020: dc2f 503d 7c7c 65bf 3e7b 10be 6135 c1be
00000030: 3af1 1abf e216 b6bb 52c6 cabc 0615 9dbe
00000040: b57c b1be 070b 103c a2ce d7be 6b91 29bf
00000050: 1d62 69be deb6 09bd 0d0d f2bd ed48 46bd
00000060: 1ba6 37bf af21 543e 6fb2 34bf 9537 c4bd
00000070: 0336 b93b df3e 4dbe 2a2e e4be fb85 a1be
00000080: e8f2 febe f375 0fbf 3e44 14bf ef58 0cbf
00000090: 2673 25be 55ba 25bf 8544 a8be 2865 79bf
000000a0: 0f28 b5be da40 2dbf d28d 28be 41ac 2cbf
000000b0: 4206 2fbe a4f5 3ebe e95f cd3d b9e7 a8be
000000c0: 7190 fcbe 09a9 2bbf ca76 313c 1eb7 c5be
000000d0: 60c0 56bf 1ac5 dcbd 8062 e8be 488c d93d
000000e0: c379 24be e10e 39be fb7c fbbe c8d4 14be
000000f0: 3bee 03bd af74 83be fed8 2f3e 6aca e7be
-0.5380357 -0.19965875 -0.19219716 -0.311683 -0.15124469 0.06557933 -0.23740222 -0.33118954
0.050826892 -0.89643073 -0.14109513 -0.37736037 -0.6052433 -0.005556927 -0.02475277 -0.30680102
-0.34665456 0.008791692 -0.42149836 -0.66237515 -0.22791333 -0.03362166 -0.118188955 -0.04840939
-0.7173783 0.20715974 -0.7058477 -0.09580914 0.0056521907 -0.20043515 -0.4456647 -0.3154753
-0.49794698 -0.5603935 -0.5791663 -0.548232 -0.16157207 -0.64737445 -0.32864776 -0.9741998
-0.35382125 -0.6767708 -0.1646035 -0.6745034 -0.17092231 -0.18648392 0.10028059 -0.3298929
-0.4932895 -0.670548 0.010831544 -0.3861627 -0.8388729 -0.10779782 -0.4538765 0.1062246
-0.16062073 -0.18072082 -0.4911879 -0.14534295 -0.032209616 -0.2567496 0.1717262 -0.45271617

fc2.weight f4 [32, 64]
00000000: 107a 573e d10a bcbc fe1a 2b3e 3d02 83bf
00000010: d7c8 993c f091 9b3e b00f af3c 88ac 3bbf
00000020: 132f 803d c920 fbbc bf0e 85bf 903d 7d3e
00000030: ef17 d23e 81e9 453e a04d 79be 6804 5c3f
00000040: 1b31 183e 4a0e 003f 1b4c 47be 72f9 193f
00000050: 5536 a63e 11df cf3e e612 203e 15b2 f73d
00000060: af42 11be 901f 9dbf ef97 4abe 87ae 6c3e
00000070: a21b 903e 52f6 7fbc c5e7 14bf 5263 20be
00000080: bb08 d13e a123 83be 72ac b43e 9591 f0be
00000090: 9082 1a3f eb86 df3e ca9b edbd 2f25 4b3f
000000a0: 3a19 eb3e 7628 bd3e a66b 843f ca7c f93e
000000b0: 45ed 3d3e f761 483e d122 0e3f 2be3 46bd
000000c0: 9dd2 90bd 6b3d 283f c396 72bf a24f 18bf
000000d0: a91d 973e 30f3 40bf 2f59 8cbf efb8 c3be
000000e0: 4a16 3bbe e980 5d3f 383d edbe 0e6b 8abf
000000f0: cbff 97be 4538 1bc0 39d1 40be 236a 203f
00000100: 9699 18bf bbcc b83c 5106 183f df21 fc3e
00000110: 6180 d1bd 3268 543f eda4 e3be eb8f 113f
00000120: c703 bdbc 62dc 043e 4c2e a6bd 7f69 c2be
00000130: 5ccc 423f ae26 e4be 68e8 a93e 8501 333e
00000140: cdbf babe ec71 2b3f 945b e7be 4559 fb3e
00000150: 67b6 1d3f 094e 093f d23d 2d3f b60b cdbe
00000160: 9f80 863d 6b57 1abf 5e44 2dbe a8a6 f73e
00000170: b80b 6ebf 7b7d 243e aeff a1bf d62e f2be
00000180: 7b7f d7bd 912e 0ec0 6543 a5be 1a2e 3fbe
00000190: bcdc b4be 57f2 d13e 2803 d03e cc13 c53e
000001a0: 6492 f4bc 733c 3d3f c534 e03e cc37 423f
000001b0: 0a4f 0b3f 47af 0ec0 e633 a6be 868e d23e
000001c0: 4206 ae3d 9b80 d23d 928e 9abe 3b20 57bf
000001d0: eb16 cdbf 5682 87be 9aac b2be 3b1b 8abf
000001e0: ab95 0e3e 2a27 9f3e eca0 c7be 1ca6 e3be
000001f0: d9a8 e23e 4f40 96be 7182 00c0 40bf 83bd
00000200: bd4c 4cbd 1ab8 0abf 6e59 6f3e a4ad 09bf
00000210: 4512 493e 79fb 80c0 2954 333f 5bf7 c0be
00000220: f227 bdbe a522 5f3f 7343 23bf 56d9 3a3e
00000230: c0f3 ecbd e424 39bf d32f b63e b94d 333e
00000240: 0ed6 bebe 3006 973e 5df5 213f e201 7cbf
00000250: 03d4 1c3e 7e47 0fbe b95a cc3e 56b1 343f
00000260: 5edc 253f daca 3ebd 0fa1 2d3f 1935 c8bf
00000270: 476d 10bf db24 a03e 99d8 3c3f f803 863e
00000280: 3ee6 0e3f 418e 093f dc75 123f 477e 20be
00000290: 3c4d 013e 93ad 343e bc19 e3bc dd59 73be
000002a0: 27fd 3bbe d345 9abd b305 1cbf b999 16bf
000002b0: 59b2 e2be 715b b53e 6f1f f43e 8a8c bebe
000002c0: a63c a2bd e5e0 0ac0 02f3 e63d 7883 fe3e
000002d0: a554 68be 804b 24bd 2252 3d3e 43ad 9cbd
000002e0: fe20 db3e 8d6f bfbe e08c 0dbf 8b28 a6bc
000002f0: ca02 c33e 9782 89be 1833 603e 8d8a 413f
00000300: abda d93e 10ea 6cbf e60b 48bf 3d08 b43e
00000310: 33a7 edbe 7a03 3dbc 9a3e 31bf 0717 dbbe
00000320: 80a7 14bf 05f7 eb3e 13a3 3b3f b467 463e
00000330: af29 913e 72b8 5e3f 0832 34be e69e 133e
00000340: 23f8 07be 8cb8 d53e 7ad7 703f 8999 19bf
00000350: e1c8 dabe 2fb6 3d3e d569 0abe a092 76be
00000360: 94f1 3d3e 5ddb b0be 2f74 343f 0600 0ebf
00000370: ba94 9a3f 19ef 053e 32bb 4bbe 6466 ebbc
00000380: d078 6abe ebe3 75bf 0a2f 443f 75a0 dcbe
00000390: 8a55 c4be 7b5b ebbe 1c49 f9be 3397 bdbf
000003a0: 17ac 74be 1b54 2fbe 0673 31bc 4446 72bd
000003b0: 5a2a 34be 493f 60be a2c6 303e c214 9b3f
000003c0: 6351 09bf ae36 a03e 904e a83e 5e27 0ebf
000003d0: 6f08 98be e169 cc3e 63db 98bc 5b6b 723e
000003e0: 05cb 133f afda 8ebe cccc 363e e8e3 c5bc
000003f0: dc4a 443f ecf1 f4be 7b03 cf3e 8667 48be
0.21042657 -0.022954376 0.16709515 -1.0235058 0.018772526 0.3038478 0.021369785 -0.73310137
0.06258979 -0.030655282 -1.0395125 0.24730515 0.41033885 0.19327356 -0.24346018 0.85944223
0.14862482 0.50021803 -0.19462626 0.6014625 0.32463327 0.40599874 0.15632209 0.12094513
-0.14185594 -1.2275257 -0.1978452 0.23113452 0.28146082 -0.015622692 -0.5816615 -0.15662888
0.40826973 -0.2561312 0.35287815 -0.4698607 0.6035547 0.43657622 -0.1160198 0.7935361
0.45917684 0.36944932 1.0345352 0.4872802 0.18547542 0.1956862 0.55521876 -0.048556488
-0.07071421 0.65718716 -0.94761294 -0.5949651 0.29514816 -0.75371075 -1.0964717 -0.3822703
-0.18270221 0.86524826 -0.4633577 -1.081392 -0.29687342 -2.4253094 -0.18829812 0.6266195
-0.59609354 0.02255856 0.5938464 0.49244592 -0.102295645 0.8297149 -0.44461766 0.56860226
-0.02307309 0.12974694 -0.08114299 -0.37971112 0.7609308 -0.4456076 0.33185124 0.17481048
-0.36474457 0.66970706 -0.45187056 0.49091545 0.6160645 0.536347 0.67672455 -0.40047997
0.06567501 -0.6028964 -0.16920611 0.48369336 -0.9298663 0.16063492 -1.2656152 -0.47301358
-0.10522362 -2.2215922 -0.3227798 -0.1866993 -0.35324657 0.41005203 0.40627408 0.38491666
-0.02985496 0.73920363 0.4379026 0.7586639 0.5441748 -2.229448 -0.3246147 0.41124362
0.08497287 0.10278436 -0.30186898 -0.84033555 -1.6022619 -0.26466626 -0.3489731 -1.078956
0.13924281 0.31084567 -0.3898996 -0.4446267 0.44269446 -0.2934594 -2.0079615 -0.064329624
-0.04987787 -0.54187167 0.23373958 -0.5378058 0.19635876 -4.0306973 0.70050293 -0.37688717
-0.36944538 0.8716224 -0.63774794 0.1824697 -0.11569929 -0.72321916 0.35583362 0.17510118
-0.37272686 0.29496908 0.6326502 -0.9844037 0.15315251 -0.13992116 0.39912966 0.70583093
0.6478938 -0.046580173 0.6782388 -1.5641204 -0.56416744 0.31278118 0.73768 0.26174903
0.5582007 0.5373269 0.5721109 -0.15673171 0.12627119 0.17644338 -0.027722232 -0.23764749
-0.18358289 -0.07532849 -0.60946196 -0.5882831 -0.44276693 0.35421327 0.47680232 -0.37216598
-0.07921724 -2.1699765 0.11276819 0.49709678 -0.2268854 -0.040111065 0.18488362 -0.076502346
0.4279861 -0.37389794 -0.55293083 -0.020283004 0.38088065 -0.26857445 0.2189449 0.75602037
0.42549643 -0.9254465 -0.78143156 0.35162535 -0.46416625 -0.011536473 -0.6923615 -0.42791006
-0.58068085 0.46086898 0.73295707 0.19375497 0.28352115 0.8700019 -0.1759721 0.14416084
-0.1327825 0.4174236 0.9407879 -0.599999 -0.42731383 0.18526529 -0.13516934 -0.2407937
0.18549186 -0.3454236 0.7048978 -0.55468786 1.2076638 0.1307949 -0.19895628 -0.028735347
-0.22897649 -0.960509 0.76634276 -0.4309117 -0.3834651 -0.45968232 -0.4868859 -1.4811767
-0.23893772 -0.17121927 -0.010830646 -0.05914904 -0.17594281 -0.21899141 0.17263272 1.211571
-0.5363981 0.31291717 0.32872438 -0.5552882 -0.29693934 0.3992453 -0.0186593 0.23673765
0.5773166 -0.27901217 0.17851561 -0.024156526 0.76676726 -0.47840822 0.40432343 -0.19570741

fc2.bias f4 [32]
00000000: 3443 d1bf 6df2 af3e 6daa 3abf 389a 833f
00000010: 2520 5dbf d349 b3be c42c 9cbe 3e54 9a3f
00000020: 3d92 6d3f 722b fe3e 065e 6f3f 840f 7e3f
00000030: e0c7 aabf 88a8 913d 30ea 2cbf 2f4d 25bf
00000040: 75fa 30bf 0a10 89be 9fa1 39bf 0f81 993e
00000050: d992 103f d2b5 4bbe 1254 813f a0d6 cc3e
00000060: a0fa 51bf 9cb2 663e 7274 28be 6c9e cc3d
00000070: 4064 08bf fbd4 073f 0fba 103f 82d1 3cbf
-1.6348634 0.34364644 -0.729163 1.0281439 -0.86377174 -0.3501726 -0.30502903 1.2056959
0.92801267 0.4964252 0.93502843 0.99242425 -1.3342247 0.07112223 -0.6754484 -0.645709
-0.6913217 -0.2677005 -0.7251224 0.29981276 0.5647407 -0.19893578 1.0103781 0.40007496
-0.8202305 0.22529072 -0.1645067 0.09991154 -0.5327797 0.5305936 0.565339 -0.73757184

fc3.weight f4 [2, 32]
00000000: 5a29 de3f 24b3 db3f cf11 973f 5118 5e3f
00000010: 1a54 89bf 692b 3abf f7e8 89bf 4a90 c8bf
00000020: aca7 89bf a816 84bf 6640 c9bf 2883 84bf
00000030: e916 ce3f 0250 af3f 01c2 3c40 8801 49bf
00000040: 087e bcbf 5d64 d43f 32d4 a5bf fa24 6e3f
00000050: cab5 f83f 7ff5 28bf 3534 56bf db08 923f
00000060: c7a9 963f 512d b63f b4d5 8fbf 047b 28bf
00000070: bdcd afbf c3c3 043f a232 783f 3c0d 81bf
00000080: 0d83 fbbf 8f39 e6bf de7c 7bbf 7fad 41bf
00000090: 46c9 8c3f 870a 283f 3f58 833f 52f6 9e3f
000000a0: f76c 923f ce7a 8f3f 1509 bc3f a6bf 513f
000000b0: 8b3e c4bf 2e85 b1bf acce 4ac0 a96c 1b3f
000000c0: cefd b83f dbd4 debf 2864 803f f061 49bf
000000d0: 9cbf f0bf 71b3 4b3f bf0a 423f 0744 7abf
000000e0: 1829 78bf 5ac5 bcbf a5d1 8f3f 5731 273f
000000f0: 347c c73f 29bc 2abf baa6 5cbf 8e11 533f
1.735637 1.7164044 1.180231 0.86755854 -1.0728791 -0.7272249 -1.077422 -1.5669034
-1.0754294 -1.0319414 -1.5722778 -1.0352526 1.6100742 1.3696291 2.949341 -0.7851796
-1.4725962 1.6593128 -1.2955382 0.9302517 1.9430478 -0.659996 -0.8367341 1.1408952
1.1770562 1.423258 -1.1237092 -0.65812707 -1.3734661 0.5186121 0.9695226 -1.0082164
-1.9649369 -1.7986315 -0.9823741 -0.7565536 1.0998924 0.65641063 1.0261306 1.2418921
1.1439503 1.1209352 1.4690272 0.8193306 -1.5331587 -1.3868768 -3.1688643 0.6071268
1.4452455 -1.7408708 1.0030565 -0.78665066 -1.8808475 0.7957068 0.7579765 -0.9776005
-0.96937704 -1.4747727 1.1235853 0.6530966 1.5584779 -0.6669336 -0.86191905 0.8244866

fc3.bias f4 [2]
00000000: 5ef3 ffbc 2f22 42bc
-0.031243976 -0.01184897
